HousePrice.pt (torch, 43938 bytes, 21 tensors)

weight f4 [15, 8]
0	0x3c21f4b4	0.009885002
1	0xbc073af1	-0.008253799
2	0xbce67ca8	-0.028135613
3	0x3d499cf6	0.049221955
4	0x3cf674c6	0.030084979
5	0x3d8fa8ce	0.07014619
6	0xbc7fe671	-0.015618906
7	0x3ccbd0fd	0.024879927
8	0x3d1826d5	0.037146408
9	0xbdfe444f	-0.124153726
10	0xbd0dbbb6	-0.034602843
11	0xbfeb3285	-1.8374792
12	0x3dc7584d	0.09733639
13	0xbf03df3f	-0.5151252
14	0x3ed033d9	0.40664557
15	0x3e79760b	0.24361436
16	0xbf604494	-0.8760464
17	0xbf22f034	-0.6364777
18	0x3e7fd26a	0.2498261
19	0x3f07f1b0	0.5310316
20	0xbef51e74	-0.47874796
21	0xbefefe41	-0.49803355
22	0xbebfc917	-0.37458107
23	0x3ea12a4f	0.3147759
24	0xbdc0172c	-0.0937942
25	0xbe89e82a	-0.2693494
26	0xc009ad55	-2.1512043
27	0xbe02b3ce	-0.12763903
28	0xbf0782ad	-0.5293377
29	0xbf186918	-0.5953536
30	0xbfc80339	-1.5625983
31	0xbf841cee	-1.0321329
32	0xbe98b853	-0.29828128
33	0x3f8683fe	1.0509031
34	0xbf32de2e	-0.6987027
35	0x3d858129	0.06518776
36	0x3cd6e403	0.026231771
37	0xbf4ecfbb	-0.8078572
38	0x3f81f35f	1.0152396
39	0xbf92d813	-1.1472191
40	0x3de2f166	0.11081199
41	0x3c544cfe	0.0129578095
42	0xbd534d52	-0.05158741
43	0xbbc84bb5	-0.0061125406
44	0x3cc655ff	0.024210928
45	0x3dd71796	0.105025455
46	0xbce77832	-0.028255556
47	0x3d496a3d	0.049173582
48	0x3d835a43	0.064137004
49	0xbe79274b	-0.24331395
50	0x3dc306bc	0.09522769
51	0x3ff6420f	1.923891
52	0xbe1d1ca8	-0.15342963
53	0x401977fe	2.3979487
54	0xbe9ec1e2	-0.31007296
55	0x3dce54f7	0.100747995
56	0xbfe23f32	-1.7675536
57	0xbe268c74	-0.16264516
58	0x3eb42757	0.35186264
59	0xbe5fe1cd	-0.2186348
60	0xbeeb3c6a	-0.4594453
61	0xbe7d0ca6	-0.24711856
62	0xbeebfd28	-0.4609158
63	0x3e42822b	0.18994968
64	0x3e13f85c	0.1445021
65	0x3c3485b8	0.011018209
66	0x3d965123	0.07339694
67	0xbe181beb	-0.148544
68	0xbe907746	-0.28215998
69	0xbe88818a	-0.2666133
70	0xbe2209bd	-0.15824027
71	0xbde1ba26	-0.11021833
72	0x3f4b7ce0	0.7948742
73	0x3eb5d255	0.35512033
74	0xbe80c03a	-0.25146657
75	0xbb8d8a22	-0.004319445
76	0xbf0a8424	-0.5410788
77	0xbe246e72	-0.16057757
78	0xbe8ffa71	-0.2812076
79	0xbf1936a1	-0.5984898
80	0x3fb953bd	1.447868
81	0x40a5ddda	5.1833315
82	0xc09b5719	-4.854382
83	0xbfccc460	-1.5997429
84	0x3f05da54	0.5228627
85	0xbf0a5716	-0.5403913
86	0x407590ba	3.8369584
87	0xc0a596cc	-5.174658
88	0xbedeb021	-0.4349375
89	0xbe193137	-0.1496018
90	0x3e289b90	0.16465592
91	0x3e9bb495	0.3041121
92	0xbf3ea7ac	-0.74474597
93	0x3e5183bb	0.20460407
94	0xbde4daf1	-0.11174572
95	0x3dcd4db0	0.10024583
96	0xbd725cce	-0.059170537
97	0x3f8776e8	1.0583162
98	0xbf498f28	-0.78734064
99	0x3da157a6	0.07878046
100	0x3e14c81c	0.1452946
101	0xbf9dd2d7	-1.2329968
102	0x3f90a1ed	1.1299416
103	0xbf88b2b7	-1.067954
104	0x3d00c251	0.031435315
105	0x400181af	2.0235403
106	0xbebdcb43	-0.3706914
107	0xbf6732f2	-0.9031211
108	0x3f02a917	0.5103926
109	0xbf648e11	-0.89279276
110	0x3ef8905f	0.48547646
111	0xbdbff3c2	-0.09372665
112	0xbe2feced	-0.17180224
113	0x4001e599	2.0296385
114	0xc0026558	-2.0374355
115	0xbf0198a2	-0.50623524
116	0x3ed94243	0.42433366
117	0xbe962937	-0.2932832
118	0x3fdd4f63	1.7289852
119	0xbfd7f232	-1.6870787

weight f4 [5, 3]
0	0x403d3f01	2.9569705
1	0x3fb334c9	1.4000484
2	0x3f98f52b	1.1949819
3	0xbe8faa0e	-0.2805943
4	0xbf5f1bdb	-0.8715188
5	0x3e587194	0.21137077
6	0xbeaf6208	-0.3425448
7	0x3ee40da3	0.44541654
8	0x3f08a8df	0.53382677
9	0xbcbdbacf	-0.023160366
10	0x3c717bad	0.014738959
11	0xbd6c45d8	-0.057683796
12	0x3f1e2275	0.6177133
13	0x3e422046	0.18957624
14	0xbf94653d	-1.1593395

weight f4 [2, 1]
0	0x402d2803	2.7055671
1	0x3d8089a2	0.062762514

weight f4 [4, 2]
0	0x3e1cf8dc	0.15329307
1	0xbe39b5b0	-0.18135715
2	0x3dd90239	0.10596127
3	0xbe8fbad8	-0.28072238
4	0xbf7cb89f	-0.9871921
5	0x4062a27f	3.541168
6	0xbf2e4cec	-0.68086123
7	0x3f1cefde	0.6130351

weight f4 [6]
0	0x3f46a741	0.7759896
1	0x3ef97462	0.48721606
2	0x3fc08337	1.5040044
3	0x3fb527ac	1.4152732
4	0x3f964d0a	1.174226
5	0x3fe0c0b4	1.7558808

bias f4 [6]
0	0xbf55b7bc	-0.8348348
1	0xbff43b49	-1.9080592
2	0xbff9431c	-1.9473605
3	0xbfd89c64	-1.6922727
4	0xbf6c0af9	-0.9220424
5	0x3fa120bf	1.2588118

running_mean f4 [6]
0	0x428c0916	70.017746
1	0x461b2b06	9930.756
2	0x44f651ba	1970.554
3	0x4490d248	1158.5713
4	0x43ae4a63	348.58115
5	0x4259c7c9	54.445103

running_var f4 [6]
0	0x4415e18d	599.52423
1	0x4c69a501	6.1248516e+07
2	0x447e1516	1016.32947
3	0x48143459	151761.39
4	0x4838fb23	189420.55
5	0x447e151e	1016.32996

weight f4 [100, 20]
0	0xbeb01599	-0.34391478
1	0x3e8fd90e	0.28095287
2	0x3d3b91a7	0.0457932
3	0xbe80d609	-0.25163296
4	0x3f55b685	0.8348163
5	0xbdc738d2	-0.097276345
6	0x3eb69dd0	0.35667276
7	0xbdd1287b	-0.10212799
8	0x3f62201e	0.88330257
9	0x3fb99960	1.4499931
10	0xbf052c0e	-0.5202035
11	0x3e650f3b	0.22369091
12	0xbc377ac5	-0.011198704
13	0x3d88d830	0.066818595
14	0x3e8b5bcf	0.27218482
15	0xc046c7ee	-3.1059527
16	0xbf072f3b	-0.5280644
17	0xbff38e35	-1.9027773
18	0xc0074f33	-2.114209
19	0x3eadba9c	0.33931434
20	0x3eed8496	0.46390218
21	0x3d92085f	0.07130503
22	0xbe11ee0c	-0.14250964
23	0xbf6d31d6	-0.9265417
24	0x3f33b945	0.70204574
25	0xbebe3ca2	-0.37155634
26	0x3daa6587	0.08320146
27	0xbeb01c4c	-0.3439659
28	0x3f0dac14	0.55340695
29	0x3e9d4f91	0.30724767
30	0xbeabf950	-0.33588648
31	0x3f41a7c0	0.7564659
32	0xbf356128	-0.70851374
33	0x3efbc8dd	0.49176684
34	0x3e6783d3	0.2260888
35	0xc07c7340	-3.9445343
36	0xbf4b5101	-0.7942048
37	0xbfac10ea	-1.3442662
38	0xbfe841c1	-1.8145066
39	0x3efb49f5	0.49079862
40	0x3f078ba8	0.52947474
41	0xbfafa493	-1.3722099
42	0x3fc540ec	1.5410438
43	0xbe861456	-0.2618739
44	0xbe0f4917	-0.13992725
45	0xbe44ef56	-0.19231924
46	0xbf9e13bb	-1.2349771
47	0x3fd1eb72	1.6399977
48	0x3fa2a415	1.2706324
49	0xbee00cb8	-0.43759704
50	0xbfa315d3	-1.2741035
51	0xbf043f83	-0.5165941
52	0x3eed494d	0.46344987
53	0xbed5bb0f	-0.41744277
54	0xbd7983aa	-0.06091658
55	0x3f161b8e	0.58635795
56	0xbdfba7ff	-0.12287902
57	0x3fe1ee59	1.7650863
58	0x3f888772	1.0666335
59	0xbf2a2121	-0.664568
60	0xbf7d7260	-0.9900265
61	0x3d429fec	0.047515795
62	0x3aa7dbb1	0.0012806562
63	0x401fd926	2.4976287
64	0xbe835441	-0.25650218
65	0xbfa5558d	-1.2916733
66	0xbd108329	-0.035281334
67	0x3db2b4e0	0.087259054
68	0xbed3af5d	-0.4134473
69	0x3ef2a2da	0.4738987
70	0x3f4bfda4	0.796839
71	0x3da0d3cd	0.07852898
72	0x3f421483	0.7581255
73	0xbf1568c8	-0.5836301
74	0x3e88ecbc	0.26743114
75	0x3fa05fd0	1.252924
76	0x3b5770eb	0.00328737
77	0x3f84390d	1.032991
78	0x3ed7154c	0.42008436
79	0xbfb4143a	-1.4068673
80	0x3f8963c4	1.0733571
81	0x3f32d42d	0.69855005
82	0xbf80b164	-1.0054135
83	0xbf37ab11	-0.717454
84	0x3f56245d	0.83649236
85	0xbd9a69f2	-0.07539739
86	0x3ed8f9aa	0.4237798
87	0xbf7ae5dc	-0.9800699
88	0x400ab6ec	2.1674147
89	0x3eb8a625	0.36064258
90	0xbfcba175	-1.5908648
91	0x3cb7b24e	0.02242389
92	0xbe91f1c6	-0.2850477
93	0xbe80c1e2	-0.2514792
94	0x3f02735a	0.5095726
95	0xbf0d8c5c	-0.55292296
96	0xbe281ee3	-0.16418032
97	0xbfe18292	-1.7617972
98	0xc01e9b27	-2.4782197
99	0x3e4add55	0.19810994
100	0x3f409602	0.75228894
101	0x3eaa95d9	0.3331745
102	0xbee57b67	-0.4482071
103	0xbf4c9121	-0.7990895
104	0x3f5102d3	0.81644934
105	0xbefb834d	-0.49123612
106	0x3ec350a0	0.3814745
107	0xbe75e56b	-0.24013297
108	0x3f621360	0.88310814
109	0x3ef78ee9	0.4835122
110	0xbeab765e	-0.33488744
111	0x3f42300d	0.7585457
112	0xbdba2390	-0.09088814
113	0x3f28f3b6	0.65996873
114	0x3cd049b3	0.025425768
115	0xc06576c5	-3.585374
116	0xbf7d431b	-0.9893052
117	0xbfab2eba	-1.3373635
118	0xbfd26343	-1.6436542
119	0x3ec35651	0.38151792
120	0x3e04a678	0.12954128
121	0xbe906bef	-0.28207347
122	0x3f29803d	0.662113
123	0xbdb726b3	-0.08942928
124	0xbf715179	-0.9426494
125	0x3f53a8c6	0.826794
126	0xbef1107c	-0.4708289
127	0x3f23fe65	0.6406005
128	0x3f923e8e	1.142534
129	0x3d078e9e	0.033094995
130	0xbeb7bc75	-0.3588597
131	0xbe6d279a	-0.23159638
132	0xbe3049f8	-0.17215717
133	0x3ee34180	0.4438591
134	0x3f8c7b33	1.0975097
135	0x3e2af45f	0.16694783
136	0x403f85d0	2.9925423
137	0x4007897b	2.1177661
138	0x3f0cc680	0.54990387
139	0xc011c612	-2.2777143
140	0xbe569b0c	-0.20957583
141	0xbfd9d97a	-1.7019494
142	0x400009cd	2.0005982
143	0xbd5f1744	-0.054465547
144	0x3f54bb86	0.8309864
145	0x3de9a29b	0.11407968
146	0xbffa2db8	-1.9545202
147	0x40008e7a	2.008696
148	0x3f17edad	0.5934704
149	0x3cb153cf	0.021646408
150	0xbfa4931e	-1.2857397
151	0xbdd15abf	-0.102223866
152	0xbef0617b	-0.46949372
153	0x3e50ca38	0.2038964
154	0xbf7a8934	-0.97865605
155	0x3f350ae8	0.70719767
156	0x3d77bed8	0.060484737
157	0x3f8db95f	1.1072196
158	0x3f6b3b46	0.9188732
159	0xbf602cf0	-0.8756857
160	0x3ea3926e	0.31947654
161	0x3ee2495c	0.44196594
162	0xbd37d012	-0.044876166
163	0xbf3e8649	-0.7442365
164	0x3f23a45a	0.63922656
165	0xbee12574	-0.43973887
166	0x3de6f990	0.11278069
167	0x3e62c007	0.22143565
168	0x3f632ee7	0.8874344
169	0x3f6a2495	0.9146207
170	0x3ce42482	0.02784944
171	0x3f12ebcb	0.5739104
172	0xbf37403d	-0.71582395
173	0x3f454671	0.7706061
174	0xbf056506	-0.52107275
175	0xc0714fbc	-3.7704916
176	0xbf891167	-1.0708436
177	0xbfbb66e4	-1.4640775
178	0xbfbadf5c	-1.4599414
179	0x3ed34e7f	0.41270825
180	0xbe3a547e	-0.18196294
181	0xbf3085a6	-0.6895393
182	0x3e50a276	0.20374474
183	0x3e83b7fb	0.25726303
184	0xbd966dae	-0.073451385
185	0xbeb062b3	-0.34450302
186	0xbdb1715d	-0.086642005
187	0x3f2f81a2	0.6855718
188	0x3f1ba2b0	0.60795116
189	0x3ef35c5f	0.4753141
190	0xbeb214fe	-0.3478164
191	0x3eb763b9	0.3581827
192	0x3e30f82f	0.17282175
193	0xbe411529	-0.18855728
194	0x3dce9999	0.1008789
195	0x3eab26a1	0.3342791
196	0x3fb9ea01	1.4524537
197	0xbe4ac5d8	-0.19802034
198	0x3eb6c04f	0.35693595
199	0xbf80c1cf	-1.0059146
200	0x3f910376	1.1329181
201	0x3f7ef813	0.9959728
202	0xbf210e0d	-0.62912065
203	0xbef17979	-0.4716299
204	0x3f2b72a4	0.669718
205	0xbedaf5fe	-0.42765802
206	0x3eccd3a5	0.40005222
207	0xbf48cc44	-0.78436685
208	0x3e8d4bf9	0.27597025
209	0x3f19c3e3	0.60064524
210	0xbf048a8d	-0.5177391
211	0x3f884fde	1.0649374
212	0xbf2e7a68	-0.6815553
213	0x3f32ef72	0.69896615
214	0x3f3d241f	0.7388324
215	0xc0ab7a2d	-5.358664
216	0xbec9861b	-0.39360127
217	0xbf86e8b0	-1.053976
218	0xbf9e9778	-1.2389975
219	0x3f2901ae	0.6601819
220	0xbeedd193	-0.46448955
221	0xbf93db07	-1.1551217
222	0x3f4619cf	0.7738313
223	0x3f3e8136	0.7441591
224	0xbd912234	-0.07086602
225	0x3f462ce0	0.77412224
226	0xbf7e49d5	-0.9933141
227	0x3f6b2701	0.9185639
228	0x3f43920e	0.76394737
229	0x3c1ed993	0.009695428
230	0xbe854b2d	-0.26033917
231	0x3d2c8d7a	0.04212711
232	0xbdaff17e	-0.08590983
233	0x3e6371d1	0.22211386
234	0x3f89327a	1.0718529
235	0x3f240808	0.64074755
236	0x401bd280	2.434723
237	0x400303d2	2.0471082
238	0x3f3b0e66	0.73068845
239	0xc0287218	-2.6319637
240	0x3f15068a	0.582131
241	0x3dee4493	0.11634173
242	0xbcc1dc01	-0.023664476
243	0xbeeaeb16	-0.4588248
244	0x3f12dd94	0.5736935
245	0xbe84d4d1	-0.25943616
246	0xbd932362	-0.07184483
247	0x3db9cc8b	0.090722166
248	0x3f8609ac	1.0471702
249	0x3f3cf3e7	0.73809665
250	0x3e1b62ab	0.15174358
251	0x3ec9efca	0.39440757
252	0xbf06b9a1	-0.52627
253	0x3efc7210	0.49305773
254	0xbc015b69	-0.007895329
255	0xc073ab2c	-3.8073225

bias f4 [100]
0	0x40893766	4.2880125
1	0x409a1dfc	4.81616
2	0x403fce18	2.996954
3	0x40478440	3.117447
4	0xbf720d1e	-0.94551265
5	0x407a48f3	3.9107025
6	0x3ef53c8b	0.47897753
7	0x4042d694	3.0443468
8	0x408bf4cf	4.373634
9	0xbfff6ef5	-1.9955736
10	0x3f03bf6c	0.5146396
11	0x3f3733d2	0.71563447
12	0x4090709f	4.5137477
13	0xbfeed587	-1.8658913
14	0xc0338670	-2.8050804
15	0xbf20b918	-0.6278243
16	0xc0568e64	-3.3524408
17	0xbf6c20da	-0.9223763
18	0x4041c5af	3.0276906
19	0x404fa1cd	3.2442505
20	0x409df9a7	4.936725
21	0xbfaff6f8	-1.3747244
22	0xc04206db	-3.0316684
23	0xc05d84a0	-3.4612198
24	0xbfe7bb45	-1.8104025
25	0xbf985264	-1.1900144
26	0x40909f6e	4.5194616
27	0xbff6f7cf	-1.9294375
28	0xbfeeb5f1	-1.8649274
29	0x403b9784	2.9311228
30	0x40b1cca6	5.5562315
31	0xc000d3df	-2.0129316
32	0xc007a645	-2.1195233
33	0x40945c7c	4.6362896
34	0x3ecf7c87	0.40524694
35	0xbfd1746c	-1.6363654
36	0x3fd13f92	1.6347525
37	0x407f0acb	3.9850338
38	0x40410f76	3.0165687
39	0x3f16be2c	0.5888393
40	0xc0819426	-4.0493345
41	0xbfc4588e	-1.5339525
42	0xbfd583ee	-1.6680887
43	0x3ee106cd	0.439505
44	0x3f3a0be8	0.7267442
45	0xbfe588ad	-1.7932335
46	0x40b892b9	5.7679105
47	0xbfa25f19	-1.2685272
48	0xc05b6edb	-3.428641
49	0xc0a4a7a5	-5.1454644
50	0x40a8cb73	5.274835
51	0x4085c31c	4.180067
52	0xbe7a4644	-0.24440867
53	0x4098d6e4	4.776232
54	0xc03f9eab	-2.9940593
55	0x3efbf201	0.49208072
56	0xc045d25e	-3.0909648
57	0xbffd1791	-1.9772817
58	0x3ead7947	0.3388159
59	0x409558ac	4.667074
60	0xbf8cec15	-1.1009547
61	0xbff2a770	-1.8957348
62	0xc0035c0b	-2.0524929
63	0x4072bb7b	3.792693
64	0xc00b8c94	-2.1804552
65	0x40881001	4.2519536
66	0x3f61d26e	0.88211715
67	0xbfd807a4	-1.6877332
68	0xbf899f04	-1.0751653
69	0xbe85d75c	-0.2614087
70	0xbf5d4aa9	-0.8644205
71	0x3f3ecf43	0.74535006
72	0x40360eb5	2.8446476
73	0xbfc642d0	-1.548914
74	0x404b02f5	3.1720555
75	0x3f3ce2c4	0.73783517
76	0x3f81a100	1.0127258
77	0x3f4531e5	0.7702926
78	0x4052e72e	3.29536
79	0xc0564007	-3.347658
80	0xbf21b909	-0.63172966
81	0xbfd05845	-1.6276938
82	0xbfc564b7	-1.5421361
83	0x40921e61	4.5662084
84	0xbecf47ad	-0.40484372
85	0x408d204a	4.4101915
86	0xbf788e67	-0.9709229
87	0x3ec2a64d	0.38017502
88	0x4090ae9c	4.5213146
89	0x4086a61b	4.2077765
90	0x3f2d4ab7	0.6769213
91	0x404d99ba	3.2125077
92	0xbf831151	-1.023966
93	0x3f496cf1	0.78681856
94	0xc00b7a85	-2.179353
95	0x40e1c6b3	7.0555053
96	0x4024edc2	2.5770116
97	0xbf25a02e	-0.6469754
98	0xc01e9800	-2.4780273
99	0x4020271d	2.5023873

weight f4 [100]
0	0x3e6d3a5d	0.23166795
1	0x3e810d69	0.25205544
2	0x3e7f6af2	0.2494314
3	0x3ea1b622	0.3158427
4	0x3ea62849	0.3245261
5	0x3eb65492	0.35611397
6	0x3f10fae0	0.56632805
7	0x3e940840	0.28912544
8	0x3eb7b75b	0.35882077
9	0x3f1f442f	0.62213415
10	0x3e8adc81	0.27121356
11	0x3f403332	0.7507812
12	0x3e8cb6b6	0.27483147
13	0x3fb72f2c	1.4311271
14	0x3eb3802c	0.35058725
15	0x3ec9ba02	0.39399725
16	0xbe0e5739	-0.1390046
17	0x3ebf0a9d	0.37312785
18	0x3e67797d	0.22604938
19	0x3e85f616	0.2616431
20	0x3e979850	0.29608393
21	0x3f761079	0.96118885
22	0x3e8a11fa	0.2696684
23	0x3e209359	0.15681209
24	0x3e8312f0	0.25600386
25	0x3fa00419	1.250125
26	0x3e87fa0d	0.2655796
27	0x3e878f45	0.26476493
28	0x3f735448	0.9505048
29	0x3e531124	0.20612007
30	0x3e828e06	0.2549898
31	0x3e4266a3	0.18984465
32	0x3e8917df	0.26776025
33	0x3e5a48bc	0.21316808
34	0x3e9488f1	0.29010728
35	0xbf382c55	-0.71942645
36	0x3ec47c84	0.38376248
37	0x3ea6dddf	0.3259115
38	0x3e99e660	0.30058575
39	0x3e3f020b	0.18653123
40	0x3ecad454	0.39615119
41	0x3fe745ca	1.8068173
42	0x3ff11adb	1.8836321
43	0x3eb24be3	0.34823522
44	0x3e34a148	0.17639649
45	0x3e861a55	0.26191965
46	0x3e45ff07	0.19335566
47	0x3bb5a5dc	0.0055434536
48	0xbf224c33	-0.6339752
49	0x3f3a11c0	0.72683334
50	0x3e8aefdc	0.27136123
51	0x3eb0b54f	0.34513327
52	0x3ecbafd2	0.39782578
53	0x3e9cc9e8	0.30622792
54	0xbfd6f0c6	-1.6792228
55	0x3e8c6d0c	0.27426946
56	0x3f3d1447	0.73859066
57	0x3e9e7263	0.30946645
58	0x3e9a2a26	0.30110282
59	0x3eaab73e	0.33342928
60	0x3f1c7e74	0.6113045
61	0x3fb68dc4	1.4262013
62	0x3f0c34ed	0.5476826
63	0x3eb9c5bd	0.36283675
64	0x3d1e3627	0.038625862
65	0x3e6b4e7a	0.22979155
66	0x3fb82f1c	1.4389377
67	0x3cd35cce	0.025801089
68	0x3ed6a941	0.41926005
69	0x3f6b34b9	0.91877323
70	0x3edac512	0.42728478
71	0x3f67c7fa	0.90539515
72	0x3e787185	0.24262054
73	0x3f2e8a33	0.68179625
74	0x3e933a2e	0.28755325
75	0x3e9c2984	0.30500424
76	0x3ee3bdc2	0.4448071
77	0x3f03418b	0.51271886
78	0x3ea375e2	0.31925875
79	0x3f05e58f	0.52303404
80	0x3e98922b	0.29799017
81	0x3eb78d10	0.3584981
82	0x3fab7ab3	1.339682
83	0x3e884948	0.2661841
84	0x3fbf10e2	1.4927027
85	0x3e5e6d50	0.21721387
86	0x3f013bee	0.5048207
87	0x3e756d96	0.23967585
88	0x3eb57668	0.354419
89	0x3eb5b74b	0.35491404
90	0x3f4c7272	0.7986213
91	0x3e8ae2f6	0.27126282
92	0xbe215aa2	-0.1575723
93	0x3e783986	0.24240693
94	0x3eb9cef5	0.36290708
95	0x3eb6f9da	0.35737497
96	0x3ebd9689	0.37028912
97	0x3e9dd483	0.30826196
98	0x3fc18f95	1.5121943
99	0x3f217454	0.6306813

bias f4 [100]
0	0xbd6e4ed8	-0.05818066
1	0x3e56bfdf	0.2097163
2	0x3cd477ec	0.02593609
3	0x3cc7efda	0.024406362
4	0x3e8158bd	0.25263014
5	0x3dcbbc74	0.09948054
6	0x3dd46fd2	0.103728905
7	0x3ba29b86	0.0049623875
8	0x3e57a9f1	0.21060921
9	0xbd3b9016	-0.045791708
10	0x3e7292ad	0.23688765
11	0x3e0b6f49	0.1361667
12	0x3c8c7849	0.0171472
13	0x3d5aa5f7	0.053380933
14	0xbce535c0	-0.027979732
15	0x3d3f7cd1	0.046749894
16	0x3da81921	0.08207918
17	0x3e84b8ef	0.25922343
18	0xbceda5de	-0.029009756
19	0xbc2077b1	-0.009794162
20	0x3e258e01	0.16167451
21	0xbd75f170	-0.060044706
22	0x3d98e939	0.07466359
23	0x3df2d8e7	0.11857777
24	0x3cc3886b	0.02386876
25	0xbbc62830	-0.006047271
26	0x3e2d74de	0.16939113
27	0xbd8a5fee	-0.067565784
28	0x3d80e7bf	0.06294202
29	0xbdb4e2e4	-0.088323385
30	0x3d9c249a	0.07624169
31	0xbdef02c0	-0.116704464
32	0xbd0bde6e	-0.034147672
33	0x3e231a62	0.15928033
34	0x3e561d96	0.20909724
35	0x3e08474d	0.13308449
36	0x3e703efd	0.23461528
37	0x3e50f8f1	0.20407464
38	0x3c9f3278	0.019433245
39	0xbc8c2a96	-0.01711015
40	0x3af5fcf5	0.0018767404
41	0xbd6737e8	-0.0564498
42	0xbc64427f	-0.0139318695
43	0x3d9585d2	0.07300915
44	0x3bd0584d	0.0063581825
45	0xbd808891	-0.06276048
46	0xbaf09d1b	-0.0018357368
47	0xbd3b8741	-0.045783285
48	0x3c43d178	0.011951797
49	0x3dcdca18	0.10048312
50	0x3d82f77a	0.06394859
51	0x3e3c21fe	0.18372342
52	0x3e2e6139	0.17029275
53	0xbd4c2719	-0.049841974
54	0x3ccc7c36	0.024961572
55	0x3e57c567	0.21071397
56	0x3d9a5152	0.07535042
57	0x3e302a83	0.17203717
58	0x3daddac7	0.08488994
59	0x3e28e490	0.1649344
60	0x3d8cbe75	0.06872264
61	0xbd37cc65	-0.04487266
62	0x3ecf5ce0	0.40500546
63	0x3e6526c8	0.22378075
64	0x3c6adaae	0.014334364
65	0xbd1b2f47	-0.037886884
66	0x3e5dce07	0.21660624
67	0xbdc09f08	-0.09405333
68	0x3da81409	0.082069464
69	0x3d98f3b4	0.07468358
70	0xbce01940	-0.02735579
71	0x3eaae7a8	0.33379865
72	0xbc8cc008	-0.017181411
73	0x3dcfae47	0.10140663
74	0x3c1e7653	0.009671765
75	0x3d928245	0.07153753
76	0x3d65c113	0.056092333
77	0x3dc1b427	0.094581895
78	0xbcb7a14f	-0.022415785
79	0x3d4252b5	0.047442157
80	0x3e02f654	0.12789279
81	0x3e365ef6	0.17809662
82	0x3d9989cf	0.07496988
83	0x3e292f30	0.16521907
84	0x3db8c5e1	0.090221174
85	0x3db4f24b	0.08835276
86	0x3eb5e726	0.35527915
87	0x3d70cb81	0.058787826
88	0x3e3cd91f	0.184422
89	0x3dd1d651	0.10245956
90	0x3e17fe03	0.14842992
91	0x3e549bf4	0.20762616
92	0x3de5f58a	0.112284735
93	0x3c51960c	0.012792122
94	0x3d87da7d	0.0663347
95	0x3d79d861	0.06099737
96	0x3dd9489c	0.10609552
97	0xbcdbd57a	-0.026835192
98	0x3da723e2	0.08161141
99	0x3ddfc3b0	0.10925996

running_mean f4 [100]
0	0x41892199	17.141405
1	0x4199e109	19.23488
2	0x3eacb480	0.3373146
3	0x3e7c70a9	0.24652351
4	0x40f4261e	7.629653
5	0x41900e0e	18.006863
6	0x3e3faa70	0.1871736
7	0x3f2a2811	0.66467386
8	0x419b3531	19.400972
9	0x00000004	6e-45
10	0x418478c8	16.558975
11	0x3e27526f	0.1634004
12	0x41917f64	18.187202
13	0x3b86ac2c	0.00410988
14	0x3ea676cf	0.3251252
15	0x3dc82f1c	0.097746104
16	0x3b609013	0.0034265562
17	0x40ca84f2	6.3287287
18	0x3f52e3a7	0.8237862
19	0x3f13d719	0.5775009
20	0x419247bb	18.285025
21	0x3a9fcb3c	0.0012191306
22	0x3cd42550	0.025896698
23	0x00000004	6e-45
24	0x00000004	6e-45
25	0x00000004	6e-45
26	0x41923547	18.276014
27	0x3bf9505e	0.0076084575
28	0x3d4769a4	0.04868473
29	0x3f1c786a	0.6112124
30	0x41916a09	18.176775
31	0x00000004	6e-45
32	0x3d5e7a31	0.05431575
33	0x4199fcf1	19.248507
34	0x41860a86	16.755138
35	0x3b658df2	0.0035027233
36	0x40cdfd60	6.4371796
37	0x41935ca0	18.420227
38	0x3f59a9f3	0.85024947
39	0x3ee732da	0.45155984
40	0x3e457aba	0.19285098
41	0x08d24477	1.2655011e-33
42	0x3c67daca	0.0141512845
43	0x418433e2	16.525333
44	0x418f6164	17.922554
45	0x415a0866	13.62705
46	0x419f9f32	19.952732
47	0x3b35d75c	0.0027746772
48	0x3d9c8d96	0.07644193
49	0x3e53f2b6	0.20698056
50	0x419dc888	19.722916
51	0x418fc8e9	17.9731
52	0x40fcf03c	7.9043255
53	0x41893821	17.152407
54	0x3b079db8	0.0020693373
55	0x418d1463	17.634954
56	0x3ca18528	0.019716814
57	0x00000004	6e-45
58	0x418cb5fb	17.588858
59	0x418a264c	17.2687
60	0x3d2cdd59	0.04220328
61	0x3ae22aaa	0.0017255147
62	0x40d095d0	6.5182877
63	0x418f856d	17.94015
64	0x00000004	6e-45
65	0x4186447c	16.78344
66	0x3e80d843	0.25164995
67	0x3c443cc2	0.011977376
68	0x3dfaefec	0.12252793
69	0x3c8b6d62	0.017019931
70	0x3f0a613e	0.5405463
71	0x3f97dc2b	1.1864065
72	0x3f455374	0.77080464
73	0x3fd44396	1.6583126
74	0x3f7fb139	0.99879795
75	0x3ea4b18f	0.32166716
76	0x3e5d800b	0.21630876
77	0x3e6ff922	0.2343488
78	0x3f70de99	0.9408966
79	0x3c7fa434	0.015603114
80	0x4086306f	4.1934123
81	0x00000004	6e-45
82	0x3d1b3598	0.037892908
83	0x4195468b	18.659445
84	0x3cc643be	0.024202224
85	0x41987fce	19.062405
86	0x40d45116	6.634898
87	0x3ecc77d8	0.39935184
88	0x4194c158	18.594406
89	0x4193d3f0	18.478485
90	0x3e39b8e7	0.18136941
91	0x41924e53	18.288244
92	0x3cf56584	0.029955633
93	0x3ec91ffa	0.3928221
94	0x3ffe2a96	1.9856746
95	0x419dafab	19.710775
96	0x3ed5cefb	0.41759476
97	0x3d486e22	0.048933156
98	0x3c0006a9	0.007814088
99	0x3e4f3ea7	0.20238744

running_var f4 [100]
0	0x41b32ba6	22.396313
1	0x41c13a03	24.153326
2	0x3fcf55e4	1.6198087
3	0x3f6a0005	0.9140628
4	0x4204236c	33.03459
5	0x41dcda1b	27.606497
6	0x3fe5b3c9	1.7945491
7	0x3fcb0353	1.586039
8	0x41dc11a7	27.50862
9	0x00000004	6e-45
10	0x42024eb3	32.576855
11	0x3fda767a	1.7067406
12	0x419d0da9	19.63167
13	0x3c28da52	0.010305958
14	0x3f3931c1	0.72341543
15	0x3eaf0b14	0.3418814
16	0x3c97a654	0.018511929
17	0x41806445	16.04896
18	0x40102b0a	2.252627
19	0x3fd10261	1.6328851
20	0x41e4393b	28.527945
21	0x3ab96d08	0.0014146874
22	0x3db5d102	0.08877756
23	0x00000004	6e-45
24	0x00000004	6e-45
25	0x00000004	6e-45
26	0x41be647c	23.799065
27	0x3d013ab4	0.031550124
28	0x3e5591c8	0.20856392
29	0x3fd2bf8a	1.6464703
30	0x41a998dd	21.19964
31	0x00000004	6e-45
32	0x3da1e892	0.079056874
33	0x41e5b94f	28.715483
34	0x41925f33	18.296484
35	0x3c428a06	0.011873728
36	0x416ca6e4	14.790745
37	0x42069b9c	33.651962
38	0x40058be7	2.086664
39	0x3fd33667	1.6500977
40	0x3ea0ab88	0.31380868
41	0x09403af7	2.3138884e-33
42	0x3db83caa	0.08995946
43	0x41f7edeb	30.99117
44	0x418db02b	17.71102
45	0x41b48252	22.563633
46	0x419a4b4c	19.286766
47	0x3bf034c6	0.00733051
48	0x3f76ee95	0.964578
49	0x3e98f504	0.29874432
50	0x41ae6f8f	21.804472
51	0x41b646eb	22.784628
52	0x41d86263	27.04804
53	0x41a9bd90	21.21756
54	0x3bb26827	0.005444545
55	0x41ac5e47	21.546034
56	0x3dc26961	0.09492756
57	0x00000004	6e-45
58	0x41a29471	20.322481
59	0x41ce739a	25.806446
60	0x3e996ce3	0.29965886
61	0x3b635b2d	0.0034691796
62	0x41af1049	21.882952
63	0x4237d21c	45.955185
64	0x00000004	6e-45
65	0x419d3d8d	19.655054
66	0x3fd5b363	1.669537
67	0x3da07fc7	0.078368716
68	0x3ef2fb0a	0.47457153
69	0x3da17a41	0.07884646
70	0x3fa3ec31	1.2806455
71	0x40730f77	3.797819
72	0x401449db	2.3170078
73	0x40cb1440	6.346222
74	0x400680cc	2.1016111
75	0x3fa7ae26	1.3100021
76	0x3fb98d7f	1.4496306
77	0x3fb788ea	1.4338658
78	0x40049d36	2.0720954
79	0x3d4bb4b2	0.04973287
80	0x4126953a	10.411432
81	0x00000004	6e-45
82	0x3e861459	0.261874
83	0x41de6c3f	27.802855
84	0x3e25be87	0.16185962
85	0x419d4ca2	19.662418
86	0x41ae1ccc	21.764061
87	0x3fa82b38	1.3138189
88	0x41cc4c3b	25.537222
89	0x41cb6930	25.426361
90	0x3fecb76a	1.8493474
91	0x41b898ea	23.074665
92	0x3e2998d2	0.16562203
93	0x3fbf64dd	1.4952656
94	0x40b3271b	5.5985236
95	0x41bcf173	23.617895
96	0x3faec133	1.365271
97	0x3def037b	0.11670586
98	0x3d1044d9	0.03522191
99	0x3f9c3f9a	1.220691

weight f4 [50, 100]
0	0x3f8a8778	1.0822592
1	0xbdc53f87	-0.096312575
2	0x3d9b3cef	0.075799815
3	0xbd29251b	-0.041295152
4	0xbe8bfcfa	-0.27341443
5	0x3ed645b4	0.41850054
6	0xbe2a2ad7	-0.16617905
7	0x3f0f3b12	0.5594951
8	0x3e4f6890	0.20254731
9	0xbe06e7a4	-0.13174301
10	0x3f38b689	0.72153527
11	0x3f4e11ec	0.80496097
12	0x3e573a96	0.21018443
13	0x3f5b697a	0.8570782
14	0x3e822eeb	0.2542642
15	0x3d643009	0.055709872
16	0x3deba264	0.11505583
17	0xbe23b10e	-0.1598551
18	0xbee090e9	-0.43860558
19	0xbe410474	-0.18849355
20	0x3e00b714	0.12569839
21	0xbf00b828	-0.50281
22	0x3c3f1134	0.011661816
23	0x3e93cd4f	0.28867576
24	0xbcf0a35c	-0.02937477
25	0x3db24e41	0.08706332
26	0x3ef0076e	0.46880668
27	0xbf47d39b	-0.7805726
28	0x3e9a3f94	0.3012663
29	0x3ed06a4d	0.407061
30	0xbe83dcd6	-0.25754422
31	0xbe8a732a	-0.27040988
32	0xbf149c70	-0.58051205
33	0x3f0aca8f	0.5421533
34	0x3f140779	0.578239
35	0xbdfa570c	-0.12223634
36	0x3ebf4fbe	0.37365526
37	0x3e1a36d0	0.15059972
38	0xbe2fb777	-0.1715983
39	0xbf8bd6ef	-1.0924968
40	0x3df73d05	0.120721854
41	0x3f5059f4	0.8138726
42	0x3d81f226	0.06345014
43	0xbe2c987d	-0.16855045
44	0x3fa07769	1.2536441
45	0x3ef8bebc	0.4858302
46	0x3f23d308	0.63993883
47	0x3e812386	0.25222415
48	0x3dc117b9	0.09428353
49	0xbd6ab032	-0.05729694
50	0x3e579e61	0.2105651
51	0x3f3c2a5b	0.7350213
52	0x3e61138f	0.21980117
53	0x3f211a6f	0.6293096
54	0xbf47a89c	-0.7799165
55	0x3dace47c	0.084420174
56	0x3f20489c	0.62610793
57	0x3f747f4b	0.95506734
58	0x3e35ebaa	0.1776568
59	0x3d1749ee	0.03693574
60	0x3f3d88ca	0.7403685
61	0x3eefb6d7	0.46819183
62	0x3dc6ef95	0.097136654
63	0xbed74ae5	-0.42049327
64	0xbd9031d3	-0.07040753
65	0x3eb83bf8	0.35983253
66	0xbec58049	-0.38574436
67	0xbf25f04d	-0.64819795
68	0x3d58481c	0.052803144
69	0x3f828993	1.0198234
70	0xbc78c2bc	-0.015183147
71	0xbd05cea7	-0.032667782
72	0xbe38f1ba	-0.18060961
73	0x3f46137b	0.77373475
74	0xbedba82b	-0.4290174
75	0xbb8c76b3	-0.004286611
76	0xbe8bd117	-0.2730796
77	0x3e39895f	0.18118809
78	0xbe7e5b96	-0.24839625
79	0x3e4ac735	0.19802554
80	0x3f5b053c	0.8555486
81	0x3e40f146	0.18842039
82	0x3eb73921	0.35785773
83	0x3e950041	0.29101756
84	0x3f81f913	1.0154136
85	0x3f35bd59	0.70992047
86	0x3e2dd7ef	0.16976903
87	0xbe18aec6	-0.14910421
88	0x3e4f31aa	0.20233789
89	0x3e032c3d	0.12809844
90	0xbe6a38a7	-0.22873174
91	0x3ea00dde	0.3126058
92	0x3eab6249	0.33473423
93	0xbe9540fe	-0.29151148
94	0x3f85ce02	1.0453494
95	0x3d6e41c7	0.0581682
96	0x3e0ba2c6	0.13636312
97	0xbf0ea9fb	-0.5572812
98	0x3f9553c9	1.1666194
99	0xbc747618	-0.014920734
100	0xbf2276d4	-0.6346257
101	0xbec254b9	-0.37955263
102	0x3d0d81d7	0.034547653
103	0x3e40172e	0.18758842
104	0xbf68742a	-0.9080225
105	0xbef6b73e	-0.48186678
106	0x3d520186	0.051270984
107	0x3d0e83a5	0.034793515
108	0x3d17bad5	0.03704341
109	0xc024c7b7	-2.5746896
110	0xbf9bc5a7	-1.2169694
111	0xbbe4d8c9	-0.0069838506
112	0xbf6af280	-0.91776276
113	0xbfd1e7b9	-1.6398841
114	0x3ed0277c	0.40655124
115	0x3fb9b362	1.4507868
116	0x3e85eeaf	0.26158664
117	0xbe4f400e	-0.20239279
118	0x3e5fead0	0.21866918
119	0x3f70adf0	0.9401541
120	0xbea5b640	-0.32365608
121	0xbf5c59f7	-0.86074775
122	0xbf386623	-0.7203085
123	0xbe94999a	-0.2902344
124	0x3ed37408	0.41299462
125	0x3f4c1be3	0.7973005
126	0xbf4c70fb	-0.79859895
127	0xbf9c142b	-1.2193655
128	0x3b55ec00	0.0032641888
129	0x3ecda77e	0.4016685
130	0xbf3abd5a	-0.7294518
131	0xbe124adc	-0.14286369
132	0x3e81821d	0.2529458
133	0xbf25a556	-0.6470541
134	0xbecd99df	-0.40156457
135	0x3f8d9ebf	1.106407
136	0xbdfd9adf	-0.12383055
137	0xbf9c9d2d	-1.2235466
138	0xbe341272	-0.17585161
139	0x3e0a63c9	0.13514628
140	0xbfed16b2	-1.8522551
141	0xbf5cf425	-0.86310035
142	0xbfdd027e	-1.7266386
143	0xbf9d8105	-1.2304999
144	0xbee48979	-0.44636133
145	0xbed05539	-0.4069002
146	0xbf2b42f8	-0.6689906
147	0xbf816868	-1.0109987
148	0xbc10e1a8	-0.008842863
149	0xc01b57ce	-2.4272342
150	0xbf0b2add	-0.5436228
151	0xbf3b14f8	-0.7307887
152	0xbf094aa4	-0.5362952
153	0xbf4a0f02	-0.7892915
154	0x3fa9e5c0	1.3273239
155	0xbcdc7929	-0.026913242
156	0x3e5a6a6f	0.21329664
157	0x3e56408b	0.20923059
158	0xbe6a8f33	-0.22906189
159	0xbf45be56	-0.77243555
160	0xbe3d5594	-0.18489677
161	0xbfa6716a	-1.3003361
162	0x3bc53d05	0.006019237
163	0xbf48366c	-0.7820804
164	0xbe8007a3	-0.25005826
165	0xbeaa5ac1	-0.33272365
166	0xbd7e46a5	-0.06207909
167	0xbe05d3e9	-0.13069119
168	0x3eb8e0c8	0.36108994
169	0xbd7b9b5e	-0.061427467
170	0x3eca9d95	0.3957335
171	0x3ead98f1	0.33905748
172	0x3ebf2691	0.3733411
173	0x3e3b7606	0.18306741
174	0xbe5ec01e	-0.21752974
175	0x3dc0dec0	0.09417486
176	0x3dda4610	0.106578946
177	0x3f573dd9	0.8407875
178	0x3f41f146	0.7575878
179	0xbed3d216	-0.4137122
180	0x3ea0e542	0.3142491
181	0x3dfb56ab	0.1227239
182	0x3f255adf	0.64591783
183	0xbf0ac25e	-0.5420283
184	0x3d350234	0.044191554
185	0xbe331283	-0.1748753
186	0x3efd4a82	0.49470907
187	0xbc78370d	-0.015149844
188	0xbec978b9	-0.39349917
189	0xbea7ba7e	-0.3275947
190	0x3f1649f2	0.5870658
191	0xbf16a5bf	-0.5884666
192	0x3e3a1f6f	0.18176053
193	0x3f340b36	0.70329607
194	0x3ebe467a	0.37163144
195	0xbf287bae	-0.6581372
196	0x3f0f4b2e	0.5597409
197	0x3ec4fd20	0.3847437
198	0xbf9da414	-1.2315698
199	0x3de3d975	0.11125461
200	0x3f73c070	0.9521551
201	0xc0075fc4	-2.11522
202	0x3f89dae8	1.076993
203	0x3f859908	1.0437326
204	0xbf8b813d	-1.0898815
205	0xbee6b258	-0.4505794
206	0x3c0ed18e	0.008716954
207	0x3ef9eeca	0.48814994
208	0xbf626a2c	-0.88443255
209	0xbf025e16	-0.50924814
210	0xbf97ee2d	-1.186956
211	0x3baca51a	0.005268705
212	0xbec7a372	-0.38991886
213	0xbfe2acbe	-1.7708967
214	0x3eaa3bae	0.33248657
215	0x3f3c0dfc	0.7345884
216	0x3f243043	0.6413614
217	0xbfcbd47e	-1.5924222
218	0x3f230a4d	0.6368759
219	0x3f8ee9b5	1.1165072
220	0xbf403134	-0.7507508
221	0xbf33f7ec	-0.70300174
222	0x3da9c058	0.0828864
223	0x3ef2612d	0.47339764
224	0xbeccfbde	-0.4003591
225	0x3eff15f1	0.49821427
226	0xbf06d7ce	-0.5267304
227	0xbfc5b23f	-1.5445021
228	0xbea4e88b	-0.32208666
229	0x3f51d2ad	0.8196209
230	0x3caa9e0a	0.020827312
231	0xbe341471	-0.17585923
232	0x3e912c63	0.28354177
233	0xbf78246e	-0.9693059
234	0xbf59c264	-0.8506224
235	0x3fa7e80c	1.311769
236	0xbfa430a3	-1.2827343
237	0xbec7b7d0	-0.39007425
238	0x3f3f4fbf	0.7473106
239	0x3f217e02	0.630829
240	0x3d4a3e6b	0.049375933
241	0xbfe5c1fb	-1.7949823
242	0xc00afd95	-2.1717274
243	0xbe5c79d1	-0.21530844
244	0x3e997636	0.29973
245	0xbdc9c050	-0.09851134
246	0x3e1a733f	0.15083025
247	0x3f19ee99	0.60129696
248	0xbf1b3d56	-0.60640466
249	0x3f6c907b	0.9240796
250	0xbe9ecaae	-0.31014007
251	0xbf7786b3	-0.9668991
252	0xbf75453f	-0.95808786
253	0xbbc7ae70	-0.0060937926
254	0x3fb66c50	1.4251804
255	0xbf8d3fc9	-1.1035091

bias f4 [50]
0	0x412702c8	10.438179
1	0x40f46f71	7.6386037
2	0x40a8382b	5.2568564
3	0x40622db8	3.5340405
4	0x4056c448	3.35573
5	0x411a80c1	9.656434
6	0x40d39b34	6.6126957
7	0x411d69a9	9.838296
8	0x40f6c81e	7.7119284
9	0x40e201a7	7.0627017
10	0x413d1b66	11.819189
11	0x40e91c43	7.2847
12	0x41242a59	10.260339
13	0x4105556f	8.333358
14	0x41274743	10.454898
15	0x4120aaef	10.041732
16	0x4130e404	11.055668
17	0x41259df8	10.351067
18	0x40f91f2d	7.7850556
19	0x406676ff	3.601013
20	0x40c1898a	6.0480394
21	0x410fcb29	8.9871
22	0x40be1c13	5.940927
23	0x41276ae9	10.463601
24	0x40da66b2	6.825036
25	0x40b9464a	5.78983
26	0x40eb6c8b	7.357
27	0x40c89a7b	6.2688575
28	0x40c80667	6.2507815
29	0x412f69cb	10.963328
30	0x40e7d5c2	7.2448435
31	0x41041b00	8.256592
32	0x40e7f80f	7.2490306
33	0x40e9368a	7.2879076
34	0x412ce784	10.806522
35	0x40d6281e	6.692397
36	0x41220030	10.125046
37	0x408f2224	4.4729176
38	0x401983be	2.398666
39	0x40c2f764	6.092699
40	0x406beb71	3.6862452
41	0x4122a02e	10.164106
42	0x40b02f2d	5.505759
43	0x40c5ee61	6.185349
44	0x40cb5eb6	6.3553114
45	0x40de329c	6.943678
46	0x40ade189	5.433781
47	0x4117ffb4	9.4999275
48	0x40b22b12	5.5677576
49	0x40eb72a0	7.3577423

weight f4 [50]
0	0x4205f9d8	33.493988
1	0x42032abe	32.79174
2	0x42028add	32.63561
3	0x42066c86	33.60598
4	0x42054811	33.320377
5	0x42036168	32.845123
6	0x42033eb4	32.811234
7	0x4203975d	32.897816
8	0x4204867e	33.13134
9	0x420437d2	33.054512
10	0x4204b758	33.179047
11	0x4204cc34	33.199417
12	0x42030018	32.75009
13	0x4204e874	33.227005
14	0x4207be5e	33.935905
15	0x4203397d	32.80614
16	0x4203cc47	32.94949
17	0x42026982	32.603035
18	0x4201f8b6	32.49288
19	0x4205c688	33.44388
20	0x420529e0	33.290894
21	0x4204c5b8	33.193085
22	0x42054b36	33.32345
23	0x42029483	32.64503
24	0x42058c39	33.386936
25	0x42037f0d	32.874073
26	0x42044e7c	33.076645
27	0x4203c44b	32.941692
28	0x420670bd	33.610096
29	0x4203b8e9	32.930576
30	0x4204d6f6	33.209923
31	0x4205b9e5	33.431538
32	0x4201c2f1	32.440372
33	0x42039499	32.895115
34	0x420383da	32.87876
35	0x4203a762	32.91346
36	0x420510f0	33.26654
37	0x42053dca	33.31034
38	0x4206003b	33.500225
39	0x4203fc13	32.996166
40	0x4203b0dd	32.922718
41	0x4202627d	32.59618
42	0x4204a547	33.161404
43	0x42031197	32.767178
44	0x42037df7	32.873013
45	0x4202b2d9	32.674656
46	0x42043449	33.05106
47	0x4201be6f	32.43597
48	0x42053e1c	33.310654
49	0x42046abb	33.10423

bias f4 [50]
0	0xc2733c2e	-60.80877
1	0x4273fac6	60.994896
2	0x42736787	60.8511
3	0x42740323	61.003063
4	0x42738693	60.88142
5	0xc273571a	-60.83506
6	0x42733064	60.797256
7	0xc273dc06	-60.964867
8	0xc273fa09	-60.994175
9	0x4273c36d	60.940845
10	0xc273671b	-60.85069
11	0xc273f296	-60.9869
12	0xc273e78e	-60.976128
13	0xc273134e	-60.768852
14	0xc2732250	-60.78351
15	0xc2735498	-60.83261
16	0xc2736ebd	-60.858143
17	0xc273ff96	-60.999596
18	0x42737bd0	60.87091
19	0x4273ce8d	60.95171
20	0x42738fd8	60.890472
21	0xc273b854	-60.930008
22	0x4273af74	60.92134
23	0xc273140c	-60.769577
24	0xc27351de	-60.82995
25	0x42733b8d	60.808155
26	0xc2737c89	-60.871616
27	0x42742a61	61.041386
28	0x4273fabd	60.99486
29	0xc273fa4c	-60.99443
30	0xc273ffa0	-60.999634
31	0xc2740e1a	-61.01377
32	0x42732a34	60.791214
33	0x4273ec74	60.98091
34	0xc27348f5	-60.821247
35	0x42741044	61.015884
36	0xc273c511	-60.942448
37	0x4273f9c5	60.993916
38	0x42734e9b	60.826763
39	0x427353e9	60.831944
40	0x4274081e	61.007927
41	0xc273106b	-60.766033
42	0x42741ee9	61.030186
43	0x4273ba35	60.931843
44	0x42739a88	60.90091
45	0x4273a7cc	60.913864
46	0x4273d575	60.958454
47	0xc27397db	-60.898296
48	0x4273afd9	60.921726
49	0xc273b160	-60.923218

running_mean f4 [50]
0	0x41465631	12.396043
1	0x40e59a46	7.175082
2	0x408bba8d	4.3665223
3	0x4040b724	3.011178
4	0x402fb048	2.7451344
5	0x412952c9	10.582711
6	0x40cd9a8f	6.425117
7	0x4123647e	10.212034
8	0x40f3f93f	7.6241755
9	0x41080a0d	8.502454
10	0x4145a9af	12.353927
11	0x40da7564	6.82683
12	0x4132a90f	11.166274
13	0x4104bc52	8.295977
14	0x41479484	12.473759
15	0x412a5c9c	10.64761
16	0x4142a4c2	12.165224
17	0x4134988a	11.287241
18	0x40eafba1	7.3432164
19	0x4058c30f	3.3869054
20	0x409e14d4	4.9400425
21	0x4109ed2f	8.620406
22	0x40a6b72c	5.20986
23	0x414382b3	12.219409
24	0x40bac0fc	5.8360577
25	0x40a30142	5.0939035
26	0x40e3daf5	7.120478
27	0x40a14275	5.0393624
28	0x40c34171	6.1017385
29	0x413ece4f	11.925368
30	0x40e97558	7.295574
31	0x4105c7a4	8.36124
32	0x40c747ed	6.22753
33	0x40d779e7	6.7336307
34	0x41429ea1	12.163728
35	0x40eb7dd2	7.359109
36	0x412990c1	10.59784
37	0x408acb1c	4.3372936
38	0x3fd63151	1.67338
39	0x409f9138	4.986477
40	0x4010fe9f	2.2655408
41	0x4134cd1a	11.300074
42	0x4094be9f	4.648269
43	0x40a09000	5.017578
44	0x40aa1135	5.3146005
45	0x40c2b143	6.0841384
46	0x4081f09c	4.0606213
47	0x411faaa5	9.979161
48	0x40850dbf	4.157928
49	0x40e455d8	7.135479

running_var f4 [50]
0	0x428efbd8	71.49188
1	0x42164f8b	37.57768
2	0x42565d74	53.591263
3	0x42059949	33.399693
4	0x41bec3e3	23.845648
5	0x411fb30a	9.981211
6	0x41cf2960	25.895203
7	0x40903529	4.5064893
8	0x4105b37c	8.356319
9	0x4211dc52	36.465157
10	0x409911fb	4.783445
11	0x4116fd6b	9.43687
12	0x40b7a424	5.7387867
13	0x40a297db	5.081037
14	0x42864c9f	67.14965
15	0x40a9d942	5.3077707
16	0x408392b1	4.1116567
17	0x408a40f1	4.3204274
18	0x420632bc	33.549545
19	0x4232e89a	44.72715
20	0x425a8cfd	54.637684
21	0x40978d58	4.736004
22	0x42804e42	64.15285
23	0x41146ef4	9.277088
24	0x40cd1186	6.408389
25	0x42683081	58.047367
26	0x412df89d	10.873197
27	0x422d877b	43.382305
28	0x41f31e87	30.389906
29	0x40727494	3.7883654
30	0x4120b089	10.043099
31	0x409741b1	4.726769
32	0x4245b964	49.431046
33	0x4213f7e1	36.99207
34	0x408eb90d	4.460089
35	0x424e1bc6	51.527122
36	0x405fbeed	3.4960282
37	0x427b0175	62.751423
38	0x4134a515	11.290303
39	0x4245a8cb	49.414837
40	0x417f9547	15.973945
41	0x40b2705c	5.5762157
42	0x422c3f39	43.06174
43	0x4253ef37	52.98361
44	0x424980c9	50.375767
45	0x41ba1466	23.25996
46	0x42041be2	33.02723
47	0x41061cec	8.382061
48	0x420518af	33.274105
49	0x411d6282	9.83655

weight f4 [1, 50]
0	0xc2688cbf	-58.137447
1	0x4267ad8f	57.91949
2	0x4267f3dd	57.988148
3	0x4267cd78	57.950653
4	0x426830bc	58.047592
5	0xc2688088	-58.12552
6	0x42686860	58.10193
7	0xc268201f	-58.03137
8	0xc267f1ee	-57.98626
9	0x4267cdd2	57.950996
10	0xc2681cbd	-58.028065
11	0xc267d5fe	-57.958977
12	0xc26826db	-58.037945
13	0xc268acad	-58.16863
14	0xc268cc77	-58.199673
15	0xc26873d9	-58.113132
16	0xc26868d1	-58.10236
17	0xc267e845	-57.976826
18	0x42680e25	58.013813
19	0x4267d3c9	57.95682
20	0x4267f041	57.984623
21	0xc26824cf	-58.035946
22	0x4267edc0	57.982178
23	0xc268b2de	-58.174675
24	0xc2687bf0	-58.121033
25	0x42686be1	58.10535
26	0xc268401d	-58.06261
27	0x42676717	57.850674
28	0x4267a616	57.912193
29	0xc267ecb4	-57.981155
30	0xc2680b70	-58.01117
31	0xc267d3a5	-57.956684
32	0x42683f54	58.061844
33	0x4267bd77	57.935024
34	0xc2688b6f	-58.136166
35	0x42676958	57.852875
36	0xc267fdaa	-57.99772
37	0x4267822c	57.87712
38	0x4268355e	58.052116
39	0x42682b00	58.041992
40	0x4267b8b8	57.93039
41	0xc268845f	-58.12927
42	0x42677edb	57.873882
43	0x42679e3d	57.90453
44	0x4267d6c2	57.959724
45	0x4267b919	57.93076
46	0x4267c919	57.946384
47	0xc267dbe6	-57.964745
48	0x4267f930	57.993347
49	0xc26826e7	-58.03799
